model.ckpt (torch, 706490 bytes, 53 tensors)

weight f4 [64, 17]
000000 59 1a fe bc 60 69 7e 3d 0a 8a 34 bb 2b 20 03 3c
       -0.031018423 0.062112212 -0.0027548098 0.008003275
000010 22 44 02 3e ae 3e 15 3e d3 73 f9 3d f6 6d 01 be
       0.12721303 0.14574692 0.12180295 -0.12639603
000020 2a 43 33 be 82 3a 8c 3d f4 77 6d 3d 3a b3 15 3e
       -0.1750609 0.06847097 0.057975724 0.14619151
000030 7f 2c 81 3e d1 80 34 3e 16 ff 25 3e c4 81 44 bd
       0.2522926 0.17627265 0.16210589 -0.047975317
000040 62 45 1b bd e5 a9 6e bd c6 eb 9f bd 99 85 40 be
       -0.037907965 -0.058267493 -0.07808642 -0.18800963
000050 8f be 26 be bb f1 6d 3e b3 ef 1b 3e a0 3e 8c 3e
       -0.1628363 0.23236744 0.15228157 0.2739153
000060 91 47 62 be 93 e9 23 3e a7 c8 80 be 16 d8 35 be
       -0.22097613 0.1600707 -0.25153086 -0.17758211
000070 8a f5 fc 3d 2b dc 49 3e 7d 5e 0f 3e e2 8d 22 be
       0.1235152 0.19712894 0.14000888 -0.15874436
000080 1a da 72 3c fd 96 3e be 6b 47 2a be e0 3a 55 3e
       0.014822507 -0.18612285 -0.16628806 0.2082324
000090 d0 6c ce bd 78 07 d6 bd a0 ba 29 3e fa 27 03 be
       -0.10079348 -0.10450643 0.16575098 -0.12808219
0000a0 ea 5d 43 3d f0 53 02 3e 38 70 21 be 0e 82 ff 3d
       0.047696985 0.12727332 -0.15765464 0.12475978
0000b0 45 9e 30 be 02 73 5d be cc 9f 8e 3e ce 0b e8 3c
       -0.17247875 -0.21625903 0.2785629 0.028325941
0000c0 23 f9 5b 3e 3b 8b 97 bd 14 3b 62 be 81 b7 79 be
       0.21481757 -0.07399603 -0.22092849 -0.24386407
0000d0 a5 66 87 bd ad d2 34 bd 6d 36 9a bd 9b 3a bc bc
       -0.06611375 -0.04414623 -0.07529912 -0.022977164
0000e0 74 9c 94 3d 5e 51 c0 3d bc 22 18 3e 67 4b a5 bc
       0.072564036 0.093905196 0.14857 -0.020177556
0000f0 9c 4f 9d bd 92 72 dc 3d 69 52 70 be fe 9a 64 3e
       -0.076812 0.1076404 -0.23468937 0.2232475
000100 1e 14 20 3d fd 42 28 3e f4 ea 65 3d 77 2d 77 be
       0.039081685 0.16431804 0.056132272 -0.24138437
000110 ac 34 af 3d 52 19 1f be a5 8e 01 be ee 7f 28 be
       0.08554968 -0.15537003 -0.12652071 -0.16455051
000120 40 90 1d 3e a3 c5 b0 bd ad e8 29 bd 29 32 73 be
       0.15387058 -0.08631446 -0.041481663 -0.23749603
000130 e4 24 2e be 8d d1 5e bd c1 b3 33 3e 30 26 69 3e
       -0.1700626 -0.054399062 0.1754904 0.22768474
000140 0d 45 8c 3d bf 83 13 bd fc b2 6a 3c 00 c5 4b 3d
       0.06849108 -0.036014315 0.0143249 0.04974842
000150 2b 74 91 be 35 6b 06 be 28 9c 67 3e 11 3e 5c be
       -0.28408942 -0.13126834 0.22618163 -0.21508051
000160 15 81 96 bd 67 f4 cf bb 87 78 30 3e b0 c9 24 be
       -0.07348839 -0.0063462737 0.17233478 -0.16092563
000170 5d e4 62 be 33 23 17 be 20 74 90 3d 87 ee 46 be
       -0.22157426 -0.14759521 0.07053399 -0.19426928
000180 e4 59 24 bd 63 79 0c 3e 5f b9 04 3d 7b 89 5c be
       -0.04012479 0.1371818 0.032403346 -0.2153682
000190 1b 47 65 bc 37 74 86 3d c2 40 8e bd 02 d2 09 3e
       -0.013994004 0.06565135 -0.06945945 0.13459018
0001a0 9b 6d c3 bd 81 da ed 3d a3 e2 58 be 6d 19 0b bd
       -0.0954239 0.11613942 -0.21180205 -0.033959795
0001b0 1f c8 f7 bd 19 37 c8 3d 8f 28 f1 3d d0 79 4f bd
       -0.12098717 0.09776134 0.11775314 -0.05065328
0001c0 d5 7d d8 3d 28 39 27 3e 3a 4d 80 3e 79 98 a0 3d
       0.105708756 0.16330397 0.2505892 0.07841582
0001d0 30 3b 25 3e a6 c1 4b be d6 23 75 be fc 6c b8 3d
       0.1613586 -0.1989809 -0.23939452 0.09005162
0001e0 36 f0 3f be 63 96 fe 3d 3b ff 07 be 72 a6 27 be
       -0.18743977 0.12431028 -0.13280956 -0.16372088
0001f0 bb 78 47 be 2d e6 43 be a6 98 21 bd cb 64 ec 3d
       -0.19479649 -0.19130774 -0.039452218 0.11542662
000200 82 8a 28 be 6f ce 03 be ba 0c 2b 3e da c9 32 be
       -0.16459087 -0.12871717 0.16704074 -0.17459813
000210 e4 53 0b 3e 85 49 5b be 6a 91 81 bd eb e7 f5 3d
       0.1360622 -0.21414764 -0.06326564 0.120071255
000220 f9 12 44 be e4 31 96 bc 3e 33 20 3d 2f b7 06 3e
       -0.19147862 -0.018334337 0.03911137 0.13155816
000230 af ac 34 be 8c 42 3c 3d ae c9 ae 3d d9 fc 9b be
       -0.17643999 0.0459619 0.08534561 -0.30466345
000240 d9 83 8c 3e 2c 1d ca 3d b4 87 a1 3d 1e ab 02 3e
       0.27444342 0.09868845 0.078872114 0.12760589
000250 b5 c6 02 be 16 30 a8 3d ea 7a 9a bb 0a d1 ca bd
       -0.12771113 0.08212297 -0.0047143595 -0.09903152
000260 44 72 8a be 7a ed 7f bd f4 6c 26 be 96 0a c7 3c
       -0.27040303 -0.062482335 -0.162525 0.02429704
000270 40 05 c6 bd ee bb 00 3e f8 35 13 bd d2 d5 ac 39
       -0.0966897 0.1257169 -0.03594014 0.00032965705
000280 7d ee fc 3d 99 e0 93 bc 5c 7b a7 bd 31 99 22 be
       0.123501755 -0.018051432 -0.08177826 -0.1587875
000290 72 23 95 3e 74 64 8e 3e e1 82 99 3e 40 8b 4d 3d
       0.29128605 0.27811015 0.29982665 0.050181627
0002a0 5a 1e f7 3c 85 81 19 3d 7c 0a 5d bc c0 f7 37 3e
       0.03016584 0.037477035 -0.013491269 0.17965603
0002b0 2d 6a 79 be 8d 7d bf bc 56 36 af 3d b9 45 62 3e
       -0.24356909 -0.023375297 0.08555286 0.2209691
0002c0 ee 23 5b 3e 77 dc 9e 3d 86 28 43 3e 13 11 11 be
       0.21400425 0.07756894 0.19058427 -0.1416667
0002d0 df 04 80 be 5a 88 a1 bd 85 c6 78 3d cd 95 c3 3b
       -0.25003716 -0.07887335 0.060736198 0.0059687854
0002e0 f7 f5 28 3e c2 39 8a 3e 2d 5b eb bd 85 50 38 be
       0.16500078 0.2699719 -0.11492 -0.17999466
0002f0 22 bd 10 3e b1 af 68 be ab f8 40 3e 76 c3 ea bc
       0.14134648 -0.22723271 0.1884486 -0.028657656
000300 ff 40 34 3e 14 98 49 bd 59 8e 5e 3c ed 51 26 3b
       0.17602919 -0.0492173 0.013583743 0.0025378421
000310 ab d3 26 be 74 a6 73 be 0c 6f 47 be 7b 27 15 be
       -0.16291682 -0.23793966 -0.19475955 -0.14565842
000320 75 87 67 be 70 bb 25 be 56 3f 18 3e ac b5 00 be
       -0.22610267 -0.16184783 0.1486791 -0.12569302
000330 df d0 f3 3d 34 da 58 be 9c 44 27 3e 09 1d f6 3d
       0.119050734 -0.21176988 0.16334766 0.12017257
000340 c8 70 4f be d3 80 d5 bd ea 7b 5b be 8d a1 52 3e
       -0.20257866 -0.10424962 -0.21433988 0.20569439
000350 3a 1a fc bd 2b 2f f7 bd 81 17 5b be 0d 36 ca 3d
       -0.1230969 -0.120695435 -0.21395685 0.098735906
000360 7e f8 ab 3d 9b 69 53 3e 45 53 42 be 07 8a a5 bd
       0.083970055 0.20645754 -0.18977077 -0.08082967
000370 19 9d 1c be 0b fc 6f 3e 68 61 3a 3e 71 d9 95 3c
       -0.15294303 0.2343599 0.1820122 0.01829216
000380 c8 01 e3 3c 43 f1 22 3e b8 1c 0c 3d c9 2c 44 3c
       0.02771081 0.15912347 0.034207076 0.011973568
000390 5b 11 0e bc 05 7d 83 3e c3 d2 5c 3e 5b 65 16 3e
       -0.00867113 0.2568132 0.21564774 0.14687102
0003a0 d5 67 32 bd 5b 51 b9 3d 45 84 20 3e d8 4b 28 3e
       -0.043556053 0.090487204 0.15675457 0.16435182
0003b0 44 2c 3f be 62 fd d7 3b b7 6c e6 bc a1 6b 50 3e
       -0.1866923 0.006591485 -0.028128011 0.20353557
0003c0 59 a4 c6 3d 9a 78 97 bc 31 34 27 be 14 ea 32 be
       0.096993156 -0.018490124 -0.16328503 -0.17472106
0003d0 de 35 02 be 9a a1 57 3e 81 45 5f be 22 6e 1a 3e
       -0.12715861 0.2105774 -0.21803857 0.15081075
0003e0 7a 90 89 3d b9 5c 07 3d 44 5a 58 be 7f 72 a5 3d
       0.0671701 0.03304741 -0.21128184 0.08078479
0003f0 36 5f 28 bb 9b d9 4f bd 47 a6 ec 3c 03 54 5b 3e
       -0.0025691516 -0.050744634 0.028887881 0.21418767

bias f4 [64]
000000 a5 72 fe bc ef f2 42 3e a8 e4 23 bd 90 4a 73 3e
       -0.031060526 0.19037984 -0.040012985 0.23758912
000010 fe 17 46 3e 9b 27 4b be 8a d6 a4 bc ad a9 98 3d
       0.1934509 -0.19839327 -0.020121831 0.07454238
000020 fd 62 26 be 18 2f 40 be bf 46 b9 bd 00 e9 54 3d
       -0.16248699 -0.18767965 -0.09046697 0.05198002
000030 90 e7 ef bd 1f 85 04 3c 83 ab 59 bc a7 5b 6a 3d
       -0.11714089 0.008088379 -0.0132855205 0.057216313
000040 0c 07 4e 3e f5 ec a8 bd d0 0c 84 bb 1c 33 84 3d
       0.20119876 -0.08248321 -0.0040298477 0.06455061
000050 63 6e 10 3e fc d0 c5 bd ad 84 95 3d 37 d8 d5 bd
       0.14104609 -0.09659001 0.073006965 -0.1044163
000060 e0 0f 2d be 9c f8 62 be b6 11 83 3e 4b cf c7 3c
       -0.16900587 -0.2216515 0.2559945 0.024390837
000070 bc 1c 5b be be ad a6 3d 28 93 66 bc 29 b0 38 3b
       -0.2139768 0.081386074 -0.014073171 0.0028181172
000080 31 17 2d 3e 88 34 4b bd 26 b8 ad bd c3 22 8b 3e
       0.16903378 -0.049610645 -0.08482389 0.2717496
000090 6f 8f 71 be ad 7f b8 3d 65 b5 c8 3d 5d 64 22 bd
       -0.23589872 0.09008727 0.09800223 -0.039646495
0000a0 34 79 27 be 86 9c 2b bd 31 37 3e 3e 42 83 07 3d
       -0.16354829 -0.04189732 0.18575741 0.03308416
0000b0 52 f6 39 3e 01 ea 45 3e cf 16 5e 3e 2b 44 62 be
       0.1816037 0.19327547 0.21688388 -0.22096317
0000c0 47 10 29 3e 5d 90 c6 3c 37 a8 a3 3d 64 54 45 3e
       0.16510116 0.02423876 0.07991069 0.19270474
0000d0 16 c1 0e be 74 6b fb 3d ec ac c9 3c 27 ff 90 bd
       -0.13940844 0.122763544 0.024618588 -0.070799164
0000e0 2b fd 65 3e 7b 6e 62 3d 14 2e 71 bd 48 eb e5 3c
       0.22459857 0.055281144 -0.058881834 0.028066292
0000f0 64 20 3a bd dc 24 92 be 0e 5c 6f 3e 9a 75 35 3d
       -0.045441046 -0.28543746 0.2337496 0.044301607

pe f4 [100, 1, 64]
000000 a7 bb df bb 0e 01 20 3d 34 9b e6 bb 65 b2 d0 bc
       -0.00682779 0.039063506 -0.0070375446 -0.02547569
000010 d1 c4 af 3d 29 5d 85 bd ff 4e ad 3d 30 fc af bd
       0.085824616 -0.065119095 0.08462333 -0.08593023
000020 ef b4 2d bc 30 2b 0a 3c b3 e1 f4 3d 01 86 a9 bd
       -0.01060222 0.008433148 0.11957111 -0.08277512
000030 a4 33 79 3d 40 ad 9a 3d 82 a7 d8 3c 1e 5d 05 bd
       0.060840264 0.07552576 0.026447061 -0.032559507
000040 48 8d 68 ba 4d d4 cd bc 1f 3d 7c bd b8 00 83 bd
       -0.000887115 -0.025125647 -0.061581727 -0.063966215
000050 9b 7a 54 bd 57 3c 0b 3d 72 60 19 3e 09 26 f9 3d
       -0.05187474 0.03399309 0.14978197 0.12165458
000060 b2 4c ea bb e8 74 30 bd 2d 75 c7 3c 61 97 a5 bd
       -0.007150256 -0.04308024 0.024347866 -0.08085514
000070 3e 2f 11 bd 5a 3a a6 3d e4 07 b1 3d 92 34 fd 3c
       -0.035445444 0.081165984 0.08644083 0.030908857
000080 06 62 93 ba f9 ba 8b bd ef de 9a bc d4 e7 40 3c
       -0.0011244423 -0.068227716 -0.018905131 0.011774022
000090 9b 7f 51 3c b1 d6 7d 3c 4d f2 de bc 26 8d 09 3d
       0.012786771 0.015493081 -0.027215147 0.033581875
0000a0 99 5a 92 3d cd d9 d4 3d 68 cc 55 3d e9 85 7e 3d
       0.071461864 0.10393105 0.05219689 0.062139425
0000b0 0c e7 28 bd de 12 e3 bb 8f 16 bf 3c 72 e6 d5 3b
       -0.04123597 -0.0069297394 0.023326186 0.0065277154
0000c0 ee 9f b9 3d dc c2 2b bd 61 09 14 3e db 9f 0d be
       0.09063707 -0.04193388 0.14456703 -0.13830511
0000d0 df 2f 45 3d 33 12 77 bd fa fc 90 3a 34 50 c0 3d
       0.048141357 -0.06032009 0.0011061721 0.093902975
0000e0 ec 27 c2 3c ab d6 12 bc 5d 05 bc 3c ac 6b 32 3e
       0.023700677 -0.008962314 0.022951776 0.17423886
0000f0 fc 9c 5d bc 6e e5 d6 bc 77 47 99 bd 0e 90 3d bd
       -0.0135261975 -0.026232447 -0.07484334 -0.04627996
000100 c0 98 c2 3d 03 31 7d 3d 64 c6 bf 3c e3 5e 1a 3c
       0.09501791 0.06181432 0.02341003 0.009422037
000110 8a f7 83 3d 6a d1 76 bd bb c7 ba bc 74 39 a0 bd
       0.06443699 -0.060258307 -0.022800317 -0.07823458
000120 fb 7f 34 3d 19 63 67 3d 1a db 14 bd 12 ec 87 3c
       0.044067364 0.05649099 -0.036341764 0.01659206
000130 8e 83 6c bc a2 29 e0 bc 05 46 95 bd b9 c5 c4 3c
       -0.014435662 -0.027363602 -0.07288746 0.024020063
000140 03 31 20 bd e4 7c 89 3c 74 91 4c 3b 54 8b 2e 3c
       -0.03910924 0.016783185 0.0031214627 0.010653336
000150 95 19 82 bb 26 c5 e1 bc 97 03 b4 3c be 5d b4 bd
       -0.003970335 -0.027559828 0.021974368 -0.088069424
000160 92 69 87 bc 60 6a b3 bc c3 a4 4f 3b 50 95 1f 3d
       -0.016529832 -0.02190131 0.00316839 0.038960755
000170 3a d2 10 bd 49 45 93 3c 9c 4c 19 3e 34 cd 80 bd
       -0.035356738 0.017977374 0.1497063 -0.062891394
000180 31 76 e9 3b 7d ce 8b 3d 50 68 c1 3c 20 09 1e bd
       0.007124685 0.06826494 0.02360931 -0.03858292
000190 cd e4 d3 3c 53 dd 21 bc d7 d8 59 bd 84 37 1d 3b
       0.025865937 -0.009879428 -0.05318531 0.0023989389
0001a0 44 31 ec 3d 42 cb 5b 3d 9d 4e 23 3e 2e 02 44 3d
       0.11532834 0.05366064 0.15947957 0.04785364
0001b0 e2 54 84 3d 84 c8 42 bd 49 12 20 3d ac bc 84 3d
       0.064615026 -0.047554508 0.039079938 0.06481299
0001c0 d7 c7 b3 3d 10 9c 36 bd 29 5b 17 3d da 96 5f 39
       0.08778351 -0.044582427 0.03695217 0.00021323134
0001d0 3a 18 2d bd 70 eb 88 bc c7 38 9c 3c 97 c8 c3 3b
       -0.042259432 -0.016713828 0.019070042 0.00597484
0001e0 c3 83 3d 3c 89 78 04 bb 6d cd c7 3c 63 a6 41 3c
       0.011567059 -0.0020213446 0.024389947 0.011819455
0001f0 ed df bf 3b 82 22 2f bd 51 04 7d 3d cf bd 16 bc
       0.0058555515 -0.04275752 0.061771695 -0.009200527
000200 b5 6c fa 3c 12 c1 8b bc 0e 81 f4 3b 41 46 62 3d
       0.030569414 -0.017059837 0.0074616736 0.05524278
000210 c3 62 0f 3d 0a ba f2 bc 3e c9 19 3d e6 44 8d bb
       0.035006296 -0.029629726 0.037545435 -0.004311192
000220 c2 25 1d bc 31 24 32 bd ca cb 9c 3d 10 34 00 3e
       -0.009591522 -0.043491546 0.07656057 0.1251986
000230 8f 0a a7 3d b9 71 be 38 cf f7 99 bd 47 62 31 bd
       0.08156311 9.0810885e-05 -0.07517969 -0.043306615
000240 c5 54 79 3d 3b e2 8e 3d 9e 85 3f 3d 6b ed a1 bd
       0.06087186 0.06976744 0.046758287 -0.07906612
000250 a4 58 c7 bc be af d1 3c 7e 2c 85 3c 20 2e 93 bd
       -0.02433426 0.025596496 0.016256567 -0.07186532
000260 b0 35 77 3b 10 df 88 3c e3 0d 7d 3c 95 58 82 3d
       0.003772121 0.016707927 0.015445205 0.06364552
000270 5e bc e9 bd de ac c9 bd 4d fe b3 bd b9 c7 1a bd
       -0.11412881 -0.09847425 -0.087887384 -0.037788127
000280 36 c5 89 bd fc c4 37 bd 25 84 9b bc 9d 8c 8e bd
       -0.06727068 -0.044865593 -0.01898391 -0.069604136
000290 42 09 9d 3d 39 83 8e bc 31 2a 45 bc 72 2c 0f 3c
       0.076677814 -0.017396556 -0.012033985 0.008738624
0002a0 51 d3 69 3d e8 7f 62 bd 7f 95 82 3d 86 b8 6b 3c
       0.057086293 -0.055297762 0.0637617 0.014387256
0002b0 16 be e2 3c c5 5b 9f bb 68 92 aa 3d 71 3e ee 3c
       0.02767853 -0.0048632347 0.08328706 0.029082509
0002c0 7e 76 10 3d 6e ed b5 3b b0 af aa 3d 23 b4 89 3c
       0.035269253 0.0055519855 0.08334291 0.016809529
0002d0 8c d7 b7 3b 5a 96 05 bd 52 c8 0c be c0 2d a5 3c
       0.005610412 -0.03261409 -0.13748291 0.020163417
0002e0 d3 31 95 3c b3 f5 5a 3c 97 de e8 3c 31 93 a9 3d
       0.018212235 0.013364243 0.028426452 0.08280028
0002f0 63 e1 f3 bc d4 23 59 3d 3a cb 75 3c 5e 9d 39 bd
       -0.029770559 0.053012684 0.015002066 -0.045316093
000300 84 31 14 3d 38 23 13 bd 9c 0c b9 bb f7 e7 63 bd
       0.036180034 -0.03592226 -0.005647255 -0.05564114
000310 22 77 47 3d 3e 4d 95 bc d8 fe 73 bc 6c 26 da bd
       0.0486976 -0.018225309 -0.014892302 -0.1065186
000320 9f e5 06 3d b9 8c 0b bc 97 cf ef 3c 25 e8 98 3b
       0.032933827 -0.008517438 0.029273791 0.0046663457
000330 b2 ff b0 3c 66 1f fe bc 01 e5 f3 bd 21 d4 06 3d
       0.0216063 -0.031020831 -0.119089134 0.032917146
000340 60 82 76 bc d4 56 a0 3d 9c 97 db 3b 3a 39 11 bc
       -0.015045732 0.07829061 0.006701423 -0.0088637415
000350 89 1d 3c 3d 91 9c 6f bc af bc 18 bd f7 7a 2a bd
       0.045926604 -0.014624731 -0.037289318 -0.041621175
000360 63 9b 65 bd 5b 9e 8b 3d f3 d7 f2 3c 2f 1d 2f 3d
       -0.05605639 0.06817313 0.029643988 0.04275244
000370 fd 6b 2e bd 13 c9 e6 bc 7f 2f 57 3d cf 73 02 be
       -0.042583454 -0.028172052 0.05253553 -0.1273949
000380 de ec a4 3c 35 a3 dd 3d e7 fd 90 3d 34 7e 89 bd
       0.020132478 0.10822145 0.07079678 -0.067135245
000390 6b ff 4d 3c 7c 90 91 bc b0 d0 19 be 86 fc db bc
       0.012573103 -0.01776909 -0.15021014 -0.026853811
0003a0 0e e9 94 bb c4 0c 6d 3c e4 cc 2a 3e 90 ca 1b 3d
       -0.004544384 0.014468376 0.16679722 0.038034976
0003b0 de 5b 25 3d 14 72 1f bd 58 25 81 3c 19 e0 d9 3d
       0.040370815 -0.038927153 0.015764877 0.10638446
0003c0 4a 8b 0a bc 40 f1 bb bd 5d 8c 63 bc b0 f4 98 3d
       -0.008456061 -0.09176874 -0.013888446 0.074685454
0003d0 98 a1 4b 3d 62 bb 2d bc 07 f2 e5 3c e5 13 2f 3b
       0.049714655 -0.010603758 0.02806951 0.002671474
0003e0 93 95 e7 3a 33 93 6c bd e1 6d 08 bd 87 69 0b 3c
       0.0017668478 -0.057757568 -0.033307914 0.008509046
0003f0 64 e8 50 3c 89 61 0b bb 03 33 41 bd 7c ec 53 bc
       0.012750719 -0.0021267852 -0.04716779 -0.0129348

in_proj_weight f4 [192, 64]
000000 97 0e 85 3d a5 37 61 3d 39 a9 6a 3c a6 c3 01 3d
       0.064969234 0.054984707 0.014322572 0.031680726
000010 65 26 3c bc 5d 8c 41 3c 21 41 dc 3c bf 9a 1f be
       -0.011483763 0.01181325 0.026886525 -0.15586375
000020 c5 a9 a1 bd 16 fe ae bb dc 8d 76 3d 9d de ab 3c
       -0.07893709 -0.005340348 0.06019388 0.020980174
000030 d2 fb a7 bd 63 7c 9a bd 02 01 7a 3c 7e 95 c0 3d
       -0.08202328 -0.07543256 0.015259029 0.09403513
000040 07 4f 1e be 46 1f f6 bd 53 1b 05 be 98 e7 c9 3d
       -0.15459834 -0.12017684 -0.12998705 0.09858626
000050 c8 ba 9c 3b a9 cf 24 be 1f 0c 2f bd c0 01 fa bd
       0.0047830082 -0.16094841 -0.04273617 -0.12207365
000060 37 3a 84 bd 23 59 29 be 5a 13 e0 3d 12 2c e5 bd
       -0.06456416 -0.16537909 0.10941191 -0.11190046
000070 b7 0c 92 bd 35 cd 0a 3e 51 1e 8b bd 76 20 b2 bd
       -0.071313314 0.13554843 -0.06792892 -0.08697598
000080 42 6f 67 3d bd c4 09 be 99 e8 5a bd e5 a9 7d 3d
       0.056502588 -0.13453956 -0.05344448 0.061929602
000090 da 6b aa 3d cb 24 01 be 06 d5 8b bd 6e 4f 11 be
       0.08321352 -0.12611692 -0.0682774 -0.14190456
0000a0 70 39 ee 3d eb c9 e2 3d aa 8c 75 3d ea 76 0b 3d
       0.11632049 0.11073669 0.0599486 0.034048952
0000b0 cd 85 00 bd 7c 87 8d 3d fb 67 f5 3d 48 c4 35 be
       -0.031377602 0.06910607 0.11982723 -0.17750657
0000c0 d0 7a 07 3b cf f9 e3 bd 29 b5 02 be f3 73 b5 bd
       0.0020672567 -0.111316316 -0.1276442 -0.08860006
0000d0 a0 fa 08 3c de e9 d8 3d a0 c9 bc bd 75 6d 09 be
       0.008360535 0.105914816 -0.092181444 -0.13420661
0000e0 32 c0 1a 3e b6 d9 ed 3d d7 75 8a 3d 54 e6 c1 bd
       0.15112379 0.11613791 0.067607574 -0.0946776
0000f0 7e 41 02 be ce a0 01 be e4 43 21 3e 4e 6a 90 bd
       -0.12720296 -0.12658998 0.15748554 -0.07051526
000100 1f b5 1e bd c7 22 9a bd eb 51 01 3e 65 08 8b bd
       -0.03874695 -0.075261645 0.12628905 -0.067887105
000110 19 cb 33 bc 59 da 4e bc 70 53 4a 3d 8d 10 67 3d
       -0.010973715 -0.0126253 0.04939598 0.05641227
000120 3f 50 da bd 81 f9 c4 bd 4d ee 17 bd cc d4 7e 3d
       -0.10659837 -0.096179016 -0.037092496 0.062214658
000130 76 ea 24 3e 5f 44 49 3d 15 92 30 bc 56 d6 97 bd
       0.16105065 0.04913747 -0.010777016 -0.07413928
000140 40 3b af 3c 1a 93 c6 3d 17 6f a8 3d 65 68 1a 3e
       0.021390557 0.09696026 0.08224314 0.15078886
000150 28 03 32 3e 36 1d b8 bd 0e ec 1d be 72 9e 0f 3e
       0.17384017 -0.089899465 -0.15422079 0.14025286
000160 fc 28 13 3e 79 1d d9 bd 04 9c 8d 3d 37 64 61 3d
       0.14371103 -0.106013246 0.06914523 0.055027213
000170 0c 6f 9e 3c 30 ed ba 3d cb 35 09 be 42 8d 8f 3d
       0.01934006 0.09127271 -0.13399427 0.07009365
000180 ae 92 97 ba cd 31 92 bd 50 9b 26 3d a7 9d 23 3d
       -0.00115641 -0.07138405 0.04067546 0.03994527
000190 df 04 91 3d 29 d2 f3 bd 76 a6 86 bd 23 27 ac bc
       0.07081007 -0.11905319 -0.06574719 -0.021014756
0001a0 b6 52 47 3e 5c 3e bf bd 3b a6 de 3d c6 5d 0f 3e
       0.19465145 -0.09338066 0.1087155 0.14000615
0001b0 f4 e0 0a 3e bf 54 28 be fc f1 b1 bd 1c 86 b8 3d
       0.13562375 -0.16438578 -0.08688733 0.09009954
0001c0 58 97 7d 3d b7 08 b8 bd 9c d4 12 3d d6 49 43 bd
       0.06191191 -0.08986037 0.03584729 -0.047677837
0001d0 eb 51 49 3d 7a 9e 18 3d ae 83 3c be a3 ae 48 bd
       0.04915039 0.03726051 -0.18409607 -0.04899467
0001e0 12 37 33 be d0 ec 04 3e 7b d9 03 3e 17 8d 9d ba
       -0.17501476 0.12980962 0.12875931 -0.0012020197
0001f0 23 61 e5 3d df 96 3f bd f3 b4 89 3b 6d 41 9a 3d
       0.11200168 -0.04677474 0.004202479 0.0753201
000200 19 43 c9 bd af 01 04 be 76 23 bf bd 33 57 12 3d
       -0.09827251 -0.12891267 -0.093329355 0.03572769
000210 ce e5 4d 3d 3d 70 0e 3e 15 b3 f2 3d 2a da a2 3d
       0.050267987 0.13910003 0.118505634 0.07951768
000220 93 1d 8f bc eb f4 e3 3d 8a 39 26 bd aa 47 83 bc
       -0.017470157 0.11130699 -0.040582217 -0.016025383
000230 4a 39 88 bd 21 17 66 3c fc ea a0 bd 59 3f 09 3e
       -0.06651552 0.0140436 -0.0785732 0.13403071
000240 61 9d af 3d 86 0a 36 3d 6c 96 ab 3d c3 15 20 3d
       0.085749395 0.04444363 0.083783 0.039083254
000250 f5 1a 98 bb 11 93 26 3d b6 07 ec bd ef 96 ff 3d
       -0.0046418854 0.040667597 -0.11524908 0.1247996
000260 f2 0e 34 bd 3c 42 ce bc 3b bb 9a 3a c6 07 16 3e
       -0.043959565 -0.025178067 0.0011805067 0.14651403
000270 77 65 10 be 58 71 d7 3d 46 20 7f 3d 76 5a 26 3e
       -0.14101206 0.105196655 0.062286638 0.16245446
000280 4d 18 8c 3c 53 26 52 3c 6c 2b 00 bd 68 7f 92 bd
       0.017101431 0.01282652 -0.03129141 -0.07153207
000290 29 98 38 3e cd 5e 20 3d 66 bf 27 3e 97 6e e4 3b
       0.18026794 0.03915291 0.16381606 0.006971191
0002a0 ef 77 d5 bd f1 22 c5 bd 4e df c5 3d 68 31 f2 bd
       -0.10423266 -0.09625805 0.096617326 -0.1182583
0002b0 fb a2 89 3d 86 6f 9f 3c cc 39 48 3c 2f 12 16 3c
       0.06720539 0.019462358 0.012220811 0.009159609
0002c0 bd 1d 41 bd 20 51 08 3e ab c7 97 bd b1 2a 13 be
       -0.0471475 0.13312197 -0.074111305 -0.14371754
0002d0 26 79 23 3d c3 ae 3b bc 55 95 44 3d 58 9a 16 be
       0.039910458 -0.011455241 0.047993977 -0.14707315
0002e0 8f c2 1d 3e d1 8b 8a 3d d2 0c 00 3d 9f 33 2c be
       0.1540625 0.06764949 0.031262226 -0.16816567
0002f0 2d 25 07 3e 3c 6a 8b bd 20 dd d1 bc 11 e9 0d be
       0.13197775 -0.06807372 -0.025618136 -0.13858439
000300 50 98 6f bd 1b 81 9c bd 66 5e 72 bd 19 49 17 3d
       -0.058494866 -0.076418124 -0.059172057 0.036934946
000310 ec df d0 3d 0a 14 60 bd a0 a1 e9 3c c4 ef 0e be
       0.1019896 -0.05470661 0.028519452 -0.13958651
000320 2d b5 84 3d 66 ab d8 3d 04 39 3d 3e 96 42 c3 3d
       0.06479869 0.10579567 0.18478781 0.09534185
000330 d1 88 ba 3d e1 da 75 3d bd 0c ee 3d 65 fd e2 3c
       0.09108127 0.060023192 0.116235234 0.027708719
000340 7a ff 2d bd b7 c0 e5 3d be 28 64 bd c4 86 5e 3d
       -0.04247997 0.11218398 -0.055702917 0.05432774
000350 95 f2 15 bb c2 e2 ee 3c 6a 47 cf bd 0d 5f b0 bd
       -0.0022880186 0.02916086 -0.10121043 -0.086118795
000360 80 90 39 3d 44 58 e8 bc 38 97 bf bd 39 0e a6 3d
       0.04530382 -0.0283624 -0.093550146 0.081081815
000370 b2 fb 19 3e e0 ef c1 3b 23 01 d5 bd 54 b0 39 3e
       0.1503742 0.005918488 -0.104006074 0.1813367
000380 4e df 9f 3d e7 0c 80 bd 5d f0 83 bc d2 6a dd 3d
       0.07806264 -0.06252461 -0.016105825 0.1081139
000390 89 80 85 3a ff 42 47 3d 96 d7 5d 3d 9d 1f da 3d
       0.0010185401 0.048647877 0.054160677 0.10650561
0003a0 78 c0 80 3d 5e f9 0c 3e bc 99 b8 3d 08 f1 2f be
       0.062867105 0.13767001 0.090136975 -0.1718179
0003b0 20 40 33 bb 85 02 9b 3d 8d b7 11 3e f9 82 e8 bc
       -0.0027351454 0.0756884 0.14230175 -0.028382765
0003c0 61 55 83 3c e6 09 b3 bd 7b de b2 bd ff f6 e1 3d
       0.016031923 -0.08742122 -0.08733841 0.11033439
0003d0 de fd 2e be 73 24 d8 bd 10 4b e3 3c 41 9a e5 3d
       -0.1708903 -0.10553827 0.027745754 0.11211062
0003e0 72 8d e6 3d 98 db 48 3d dc 20 b3 3d b2 15 a7 bd
       0.11257447 0.049037546 0.08746502 -0.08158435
0003f0 02 1f af 3d c2 93 d6 bd 2d 31 0b 3e b8 68 3d bd
       0.08550836 -0.10477401 0.13592978 -0.046242446

in_proj_bias f4 [192]
000000 14 b0 55 3d be 45 c2 bd 61 df 64 bd 3a 01 95 3c
       0.052169874 -0.094859585 -0.055877093 0.018189061
000010 97 7b 69 bd 52 ad cd 3c 2c 76 b9 bd 60 5d 00 3b
       -0.05700263 0.02510706 -0.090557426 0.0019586906
000020 f9 fd bb bc 9e de 44 bb 0f 45 af 3b 05 e4 66 bd
       -0.022948252 -0.0030039917 0.0053488086 -0.0563698
000030 2c 94 4c 3c 8a 00 6c 3d c4 bf 93 bd 78 33 8a bd
       0.012486499 0.0576177 -0.07214311 -0.06748098
000040 81 2c 0d 3d 44 1e 68 3c b6 ff 29 3c f7 3c f1 bc
       0.03446627 0.014167372 0.010375908 -0.029448016
000050 44 89 62 3d 7e 16 b3 bb 3c f7 54 bd bc 0e 37 3d
       0.055306688 -0.0054653278 -0.051993594 0.044691786
000060 23 3a 78 bc 06 56 53 bb ea c8 4c bd 17 41 88 3c
       -0.01515058 -0.003224732 -0.049996294 0.0166326
000070 f9 22 7d 3d 0c 83 df 3b c3 a5 f4 3c b2 5f 2c be
       0.06180093 0.006821042 0.029864198 -0.1683338
000080 44 04 88 bd 7e 1b ab bc 03 bb 92 bd 62 30 78 bc
       -0.066414386 -0.020887133 -0.07164576 -0.015148254
000090 8d 64 76 3d f1 60 43 3c 77 0b 5c bb c7 83 6c bd
       0.060154486 0.011924968 -0.003357617 -0.05774286
0000a0 c0 bf be 3c a0 ac cb bb 85 58 4b bd dc 15 c0 3d
       0.023284793 -0.006215647 -0.049644966 0.09379169
0000b0 5c 70 80 bd 93 41 4c bd df 46 8a 3d f2 5a fd bc
       -0.06271431 -0.049867224 0.06751799 -0.030927155
0000c0 83 72 dd 3d 2f 12 0f 3d f8 7c 62 3d 54 c8 a9 37
       0.10812857 0.03492945 0.05529496 2.0239655e-05
0000d0 d4 f0 a0 bd d8 e4 72 3d 85 c5 44 3d 73 cb c7 3c
       -0.07858434 0.059300274 0.04803993 0.024389004
0000e0 55 f1 c0 bb 42 a4 7d bb ba 75 6d bd 1b 51 f2 3b
       -0.005888144 -0.0038702642 -0.0579736 0.0073949224
0000f0 6a 80 80 3c 25 3b 2e 3d 8d 41 16 bd 81 09 95 3d
       0.015686233 0.042536873 -0.036683608 0.07277203
000100 59 9a 98 3b 2c 3f 32 bb 7f 04 40 bb 2c a0 98 3b
       0.0046570715 -0.0027198298 -0.0029299555 0.004657766
000110 fd ba b9 ba 96 f9 b4 3a 69 0d d3 bb bc 77 17 ba
       -0.0014170107 0.0013807293 -0.0064408076 -0.00057780347
000120 02 59 96 bb 75 45 68 bb 8f e9 f8 3a c4 6b 9d 36
       -0.0045882473 -0.003544179 0.0018990504 4.69151e-06
000130 45 da 4d b9 3f 6d f9 39 6b fe 90 bb 26 7a 86 bb
       -0.00019631635 0.00047574376 -0.0044248602 -0.0041039167
000140 83 ea a9 3a d7 1c 95 bb 22 84 1b 3b 83 b8 90 3b
       0.0012963567 -0.004550557 0.002372988 0.0044165268
000150 f3 61 1e 3b b8 e7 09 bb ff 91 23 3a de 50 10 bb
       0.002416727 -0.0021042656 0.00062397117 -0.0022020857
000160 7b 5b b0 3a e7 27 04 3b b3 a1 33 bb d0 82 b6 3b
       0.0013454998 0.0020165385 -0.0027409613 0.0055697933
000170 35 73 b6 3b 1e fe 61 3b 33 79 83 bb 63 61 85 b9
       0.005567933 0.003448374 -0.004012251 -0.00025440296
000180 98 3c 9a ba f2 23 58 3b bb e5 ac 3b f2 cf 58 bb
       -0.0011767326 0.003298041 0.0052764094 -0.003308293
000190 bb 7a 8e 3a 4b 55 3e bb 77 5d bd 3a 68 08 01 ba
       0.0010870317 -0.0029042538 0.001444741 -0.0004922212
0001a0 0c 0f 29 bb 84 a1 77 3a c5 32 bb 3b 78 ee 11 bc
       -0.0025796322 0.000944637 0.0057128393 -0.008906953
0001b0 a9 16 1d ba 44 d2 2b 3b 75 6e c8 3a 5d 9f 87 bb
       -0.00059924513 0.0026217857 0.0015291708 -0.0041388706
0001c0 7e 94 44 3b 63 97 d5 3b 28 b6 41 bb c3 e8 e3 3a
       0.0029995735 0.006518291 -0.0029558036 0.0017388094
0001d0 f0 e9 9a bb d2 fe ae 3b e1 5a 65 bb cf 22 69 39
       -0.0047275946 0.0053404355 -0.0034996795 0.00022233579
0001e0 98 b9 2d 3a 34 f2 13 bb 63 a7 61 3b 9a 4b ff 3a
       0.0006627082 -0.0022574784 0.0034432046 0.0019477487
0001f0 e4 44 08 bb e2 d5 da bb 3d 0f 67 3b e4 67 bd bb
       -0.0020793015 -0.006678329 0.0035256885 -0.005780207
000200 eb 56 45 3d c5 6b ab 37 c4 6d 5a bd 46 0c 11 be
       0.048178595 2.0434973e-05 -0.053327337 -0.14164838
000210 b4 4b 05 3e 53 97 d0 bd fd af 77 bd 78 12 79 3b
       0.1301716 -0.10185113 -0.06047057 0.0038005393
000220 13 12 b4 bc 57 1f 02 be 63 a1 c9 bd 80 e6 52 bd
       -0.021981275 -0.12707268 -0.09845235 -0.051489353
000230 87 80 d9 bd c9 0d 8b 3d 31 27 9e 3c de b3 9b 3d
       -0.10620218 0.06789739 0.019305797 0.07602666
000240 08 3b de 3c 26 e4 7f bc bf 03 51 3c 60 35 a1 bd
       0.027127758 -0.01561836 0.012757241 -0.078715086
000250 31 f8 c1 3d 3e 14 06 bd 6e 4c 2d 3d 7e 67 1c bc
       0.09471167 -0.03273415 0.042309217 -0.009546159
000260 e6 5b 16 be fe b5 15 be f0 72 83 bd b1 2e 74 bd
       -0.14683494 -0.14620206 -0.06418407 -0.05961484
000270 4f 1e 37 bd 4d 52 ca bd 9a 3c 18 be f3 89 2f 3c
       -0.04470664 -0.09878979 -0.14866868 0.010714042
000280 57 ef 73 bd 72 e9 cd bd 19 9e 5f bc a1 3f a0 3c
       -0.059554424 -0.10054292 -0.013648533 0.01956159
000290 4a 94 9a 3c be 1a f0 bd ed f2 c0 3d 72 8f f7 3b
       0.018869538 -0.11723851 0.094213344 0.007554942
0002a0 d9 0f ea 3c 7e 77 ea bd 45 81 09 3b 1a 02 ac 3c
       0.02857201 -0.114485726 0.0020981592 0.020997096
0002b0 b1 82 17 bd 0a ae c9 bc 38 08 bf bd 39 e1 f5 3c
       -0.03698987 -0.024619121 -0.093277395 0.030014621
0002c0 78 ff dd bc 38 50 8f 3d d1 f4 9c 3d e9 ae f8 bc
       -0.027099356 0.069977224 0.076638825 -0.030356841
0002d0 56 23 4f 3d 4a c0 a7 3d 91 1f 3c bd 7d d1 87 bd
       0.05057081 0.08190973 -0.04592854 -0.066317536
0002e0 b3 f0 e4 3c b0 cb d3 3d 91 1e 05 3e 6c c7 6c 3d
       0.027946806 0.10341585 0.12999941 0.05780737
0002f0 4a 51 96 bd f5 ca ee 3b ab 64 34 3c e3 fe c3 bd
       -0.073397234 0.007287378 0.011010329 -0.095701

weight f4 [64, 64]
000000 d4 07 b6 3d ca fc 06 3b 61 64 10 3c ac 1e 3f bd
       0.08888212 0.0020597451 0.008812995 -0.04666011
000010 9d 52 8d b9 63 da dc bb ee 98 ea bc ab 88 d7 3d
       -0.00026955167 -0.006739901 -0.028637376 0.10524114
000020 bb 45 e4 3b 64 6c ef 3c 1a e7 0a bd 2c 7e 06 3e
       0.0069663203 0.02922649 -0.033911802 0.13134068
000030 3d cf 14 be 22 72 a2 bd 5e 9e 06 3d e5 29 ce 3d
       -0.1453218 -0.07931925 0.032865874 0.100665845
000040 81 c9 a0 3d 1e bd 11 be c0 77 a3 3d e9 c9 b0 bd
       0.07850934 -0.14232299 0.07981825 -0.08632261
000050 2f 4f 9d bd 01 54 6b bd bd 00 92 3d a8 4b ba 3d
       -0.07681119 -0.05745316 0.07129047 0.090964615
000060 d5 04 72 bd 97 e3 bf bb 64 d0 0d 3d b7 5a e2 bd
       -0.05908664 -0.0058559882 0.034622565 -0.11052459
000070 61 ff 80 3d 73 af a5 3c 8e 72 a8 3d 92 da cf 3d
       0.0629871 0.020225262 0.082249746 0.10149111
000080 6c 09 bb 3d 7f c8 a7 bd a1 4e 11 3d 93 09 35 3d
       0.091326565 -0.081925385 0.035475377 0.044198584
000090 85 8f 1d 3d 01 11 a1 bc 28 57 28 bd 53 24 13 3d
       0.03846695 -0.019661428 -0.041098744 0.035923313
0000a0 81 82 4c bd a8 93 89 3c 21 b2 64 3d 5b d2 cb bc
       -0.049929146 0.01679404 0.05583394 -0.024880579
0000b0 ce 89 3e 3d e9 68 23 3e 74 a5 97 3d e8 3d 32 3c
       0.04651814 0.15957989 0.074046046 0.010879017
0000c0 0a dc af bc c0 30 96 bd cd 88 96 3d 00 55 85 bd
       -0.021467227 -0.07333517 0.073503114 -0.06510353
0000d0 31 f7 ea 3d 9b f8 1a 3d df 56 d3 bd d8 0a 6b 3b
       0.11472929 0.037834745 -0.10319304 0.0035864618
0000e0 bf a1 15 3d a5 78 8d 3c a6 c2 51 bc 1e 7b ab 3d
       0.036531206 0.017269442 -0.012802755 0.08373092
0000f0 30 42 14 bd 88 da b2 3d ce fb 40 3d 86 c4 01 be
       -0.036195934 0.08733088 0.04711514 -0.12672624
000100 65 a4 d2 3d b3 f7 a1 bd e3 53 e9 bc 91 61 81 bd
       0.10285262 -0.07908573 -0.028482383 -0.063174374
000110 a0 06 13 3d b2 7a b5 bd fb 3c c5 bc ec 7d 9b 3c
       0.03589499 -0.08861293 -0.02407693 0.018980943
000120 b3 3d 81 bc 95 6f 0b 3d 63 18 31 bc fd c2 96 3d
       -0.01577649 0.03404196 -0.010809037 0.0736141
000130 3c 83 03 bd 24 c3 a2 bd 44 6d c7 3d ab 2b 6c bd
       -0.032107577 -0.07947376 0.09737638 -0.057658833
000140 28 30 db 3c fe d4 8e 3d 40 25 af bd 1a 6c e6 3d
       0.026756361 0.06974219 -0.08552027 0.112510875
000150 f5 30 46 3c 63 0a 8f bc 1e b8 0f be da a4 d7 bd
       0.012096633 -0.017461007 -0.14035079 -0.1052949
000160 a8 a0 1e 3d a6 36 2f be fe 55 97 3c 98 3a 43 3d
       0.038727432 -0.1711069 0.018473621 0.0476633
000170 36 58 17 be ee 27 76 3c 98 00 19 bd 10 22 37 bc
       -0.14779744 0.015024168 -0.037354082 -0.011177555
000180 e6 d0 9e 3c a0 7b e3 3c c4 0e df 3c 9e 69 12 bc
       0.01938672 0.02776891 0.02722872 -0.008936314
000190 4b c8 e7 3d 85 0e 5f 3d e9 72 c4 3c a1 91 3e bb
       0.113175 0.054457206 0.023980575 -0.00290785
0001a0 d6 4c cf 3d 46 6d c8 3d 9b 0d c7 bd a0 c5 f1 ba
       0.10122077 0.09786467 -0.09719392 -0.0018445738
0001b0 eb c2 bf bd 6f 75 4e 3c c3 a6 91 3d 04 a2 e2 3d
       -0.093633495 0.012601241 0.071118854 0.11066058
0001c0 35 38 95 bd f8 17 8c bd d0 c9 bf 3d 2c 83 fb bd
       -0.07286111 -0.06840509 0.093646646 -0.122808784
0001d0 ad 27 4b bd 40 b3 a2 3d 9c bd dd 3c 04 83 60 3d
       -0.049598385 0.079443455 0.027067952 0.054812446
0001e0 8d f4 5b 3c 91 b0 c2 3d f4 4c c4 3b cc d3 60 bd
       0.013425005 0.095063336 0.005990619 -0.054889485
0001f0 a4 94 43 bc 43 8d c0 bd 97 28 83 3d b2 c1 69 bb
       -0.011937294 -0.094019435 0.06404226 -0.003566843
000200 07 c7 bb bd 5c e4 8f bd 6e ef 2c 3d 9c 66 1d 3d
       -0.09168821 -0.07025978 0.042220525 0.038427934
000210 f0 40 96 3d e6 b7 c8 bd 72 7a dd 3d 8e 84 1a 3b
       0.073366046 -0.09800701 0.1081437 0.0023577544
000220 1c 17 e4 3d c0 81 9b 3d 63 a2 26 bc 5b 24 0a be
       0.1113722 0.07593107 -0.010170552 -0.13490431
000230 39 3b 19 3e 8f fc 02 be 06 26 ce bc 2f 06 8d 3d
       0.14963998 -0.12791656 -0.025164615 0.06885945
000240 d5 83 8e 3d 22 d2 48 3d 96 6a 93 3d 51 42 c7 bd
       0.06958739 0.049028523 0.07198064 -0.09729446
000250 08 f0 51 3d 4f 82 3a 3d e3 02 df bd 42 91 bb bd
       0.051254302 0.04553443 -0.108892225 -0.09158565
000260 f0 2d 8a 3d 95 ad d9 bd a3 a4 ef 3b 23 c3 cb bd
       0.06747043 -0.10628811 0.0073133274 -0.09949329
000270 19 dc 32 bd 17 2d ba 3c 69 cc 46 3d df 18 56 bc
       -0.043666933 0.022726579 0.048534784 -0.013067453
000280 40 6f 8c 3d 9d 9b 07 3e df f2 d1 bb 9f 38 08 be
       0.06857157 0.13242956 -0.0064071263 -0.13302849
000290 ea db 5f bb 50 d9 91 bd b5 f2 e0 bb a8 7f f1 bd
       -0.0034158179 -0.07121527 -0.0068648704 -0.117919266
0002a0 88 e6 b5 bd 2f 0e 81 bd a4 80 59 3b c9 63 e1 bd
       -0.08881861 -0.063015334 0.0033188248 -0.11005361
0002b0 3f 54 01 3d 11 3f 4d bc bf 32 8d 3c 78 c5 f3 bc
       0.031574484 -0.012527243 0.017236112 -0.029757246
0002c0 ae 20 c5 bd 2b d4 da bc 4a 75 98 3d ef 26 3c bb
       -0.09625374 -0.026712498 0.07444246 -0.002870973
0002d0 e6 8f 0c be e6 29 a4 3d 14 6a 80 bd 34 5c 75 bd
       -0.13726768 0.08015804 -0.06270233 -0.059902385
0002e0 fc 62 e4 ba 3f f8 36 3d f3 de 9a bd e6 de 25 3d
       -0.0017424519 0.04467034 -0.075620554 0.040495776
0002f0 b3 4c d6 bd 05 86 9f 3c da 3e 0b be bb 72 92 bd
       -0.10463848 0.019473085 -0.13598195 -0.07150789
000300 b0 8f e2 bd 3d 65 17 be 81 ed 1c 3e 1d ea f5 bd
       -0.110625625 -0.14784713 0.15324976 -0.12007544
000310 b6 53 b0 3c 6b ee 9e bc c9 2d c4 3d e4 47 9a bc
       0.021524291 -0.019400796 0.09579045 -0.018833108
000320 40 ec 88 bd ab 85 04 bd be c1 06 3e f4 a4 98 bd
       -0.06685686 -0.03235404 0.13159844 -0.07453337
000330 5f a0 8a 3d db 9e 95 3b 34 45 95 bd 44 70 f4 bd
       0.067688696 0.004566056 -0.0728859 -0.119354755
000340 70 88 05 3e da ec 30 3c 61 ed 27 bd d3 42 d8 bd
       0.13040328 0.010798657 -0.040997867 -0.10559621
000350 f8 f2 65 bd 53 c9 b7 3b 6c a2 07 bd ba 06 94 3d
       -0.056139916 0.0056087165 -0.033113882 0.072278455
000360 11 41 03 39 f9 85 85 bd 42 98 82 3c 06 64 10 3d
       0.00012517373 -0.06519694 0.015941743 0.03525164
000370 4c 0d 90 bd a3 10 9e 3d a6 5a 43 3d 5b 60 c8 bd
       -0.07033786 0.07718017 0.04769387 -0.09784003
000380 d2 5e 7f 3d 17 bc d9 3c dd 35 95 3d 1b 61 80 3d
       0.062346287 0.026578946 0.07285664 0.062685214
000390 03 d8 0c 3d bf 5c 8b 3c a1 15 fd bc ab 99 da bd
       0.034385692 0.017011998 -0.030894103 -0.10673841
0003a0 7a 4d 87 3a 16 d5 eb 3d 0c 9a ee 3d 17 44 12 3d
       0.0010322772 0.11515252 0.11650476 0.035709467
0003b0 43 34 2f 3d fd 94 7c bd 31 58 24 bd 0a 79 66 3d
       0.04277445 -0.061665524 -0.04012317 0.056267776
0003c0 82 1e 2f 3d 73 95 3d 3d 7a b3 81 3d e4 ea 92 bc
       0.042753704 0.046285104 0.063330606 -0.01793427
0003d0 38 fb 7d 3d 39 e6 98 3d af f9 6e bc d7 ca e0 bd
       0.06200716 0.074657865 -0.014585896 -0.10976189
0003e0 1f c8 2c 3d fc 24 45 3c 0e ed 5d 3d 49 5a aa 3c
       0.042183038 0.012032744 0.05418115 0.020795004
0003f0 0e 15 05 3c 73 73 81 3d 11 ad 25 3d 77 af 4f 3d
       0.008122696 0.06320848 0.040448252 0.050704446

bias f4 [64]
000000 9f e8 d6 3c 85 d7 51 bd 2e a2 6c bc db 41 99 bc
       0.02623397 -0.051230926 -0.0144429635 -0.01870816
000010 7e b7 7a bd c8 2f f6 3b 17 39 e1 bd b8 18 07 bc
       -0.061210148 0.00751302 -0.10997217 -0.0082456395
000020 5f f5 84 3c 98 ad 09 bc 04 27 7f bd 0e 3f 04 bd
       0.016230283 -0.008403204 -0.062293068 -0.032286696
000030 c3 b9 ab 3d ee 56 6c bd 8a 07 e7 bb 76 6c cb 3d
       0.083850406 -0.05770009 -0.0070504593 0.09932797
000040 ac e6 af bc 4a 2f 58 bd db 3a 13 bd 17 92 4e 3c
       -0.021472298 -0.052779473 -0.0359448 0.012608073
000050 bf 2a 0b 3d bc 7b c3 3c 80 4a 97 bc c7 6c a5 3c
       0.033976313 0.023862712 -0.018468142 0.02019347
000060 80 dc 90 3c 37 aa bf 3a 1a 70 59 bd d5 c1 6d bd
       0.017683268 0.0014622872 -0.053085424 -0.05804618
000070 85 ef d6 bc f9 19 ca bd 6c d7 e2 3c 79 e7 8d 3d
       -0.026237259 -0.09868235 0.027690612 0.069289155
000080 f9 d5 69 3d c5 2d 83 3c 94 34 ef bb ee df 7e bd
       0.057088826 0.016013036 -0.007299969 -0.062225275
000090 95 e1 94 3b 8c 1a 2a bc 52 51 8e 3d 14 09 18 be
       0.004543493 -0.010382306 0.06949104 -0.14847213
0000a0 ec ee 43 bd 49 03 ec bc 36 ca 69 bd b9 be a3 bd
       -0.047835276 -0.02881016 -0.05707761 -0.07995362
0000b0 63 25 3c 3d d3 46 7c 3d e5 9a c0 bd b6 13 db bc
       0.045934092 0.06159098 -0.09404544 -0.026742797
0000c0 8b e6 b9 3d 34 65 7d bd 99 60 a5 3d 47 19 4c 3d
       0.09077176 -0.061864093 0.08075065 0.049828794
0000d0 88 56 d2 3a 00 ed 41 3c ce b9 17 3d 3d 08 67 3d
       0.0016047517 0.01183629 0.03704243 0.05640434
0000e0 89 a8 68 3c 13 ea 05 3d f3 f1 92 3d 23 ef cc bd
       0.014200338 0.032693934 0.071750544 -0.10006549
0000f0 f5 98 85 bd f4 c5 cd bc 9e a2 8a 3d 47 75 ae bc
       -0.06523315 -0.025118805 0.06769298 -0.021296157

weight f4 [256, 64]
000000 ea dc b4 3d cd a8 07 3e 94 61 0f 3e 0e 10 ca 3c
       0.088311985 0.13247986 0.14002067 0.024665859
000010 36 f2 41 bc 65 7c 02 3d 2e a1 63 3d dc fc e8 3c
       -0.011837533 0.031856913 0.055573635 0.028440885
000020 c8 43 0a 3e 37 34 d6 3b af 18 06 3e 15 de d9 3c
       0.13502419 0.006536986 0.13095354 0.026595155
000030 0d 29 60 bb 97 53 10 3e 7b cc 16 bb 2e 06 b3 3b
       -0.0034204156 0.14094387 -0.0023010063 0.005463383
000040 22 85 09 be 8f c9 b1 bd 8a 44 0b be 21 9f d2 bc
       -0.13429692 -0.086810224 -0.13600364 -0.025710644
000050 1c a1 0b bd 03 78 8a 3d 82 c7 0d bd c8 73 cd 3c
       -0.034089193 0.06761172 -0.034614094 0.025079623
000060 2c 6f b6 3d 46 fe 47 bd ec 34 67 3d 23 dd 89 bc
       0.08907923 -0.04882648 0.056446955 -0.016829079
000070 b2 bc 29 bd 01 f3 2d 3e a2 fd 92 3d 39 02 1a bd
       -0.04143972 0.1698723 0.07177283 -0.037599776
000080 03 f7 e1 bd 5a b0 e7 bd b7 0f 72 bd ba 2a a2 bd
       -0.11033442 -0.11312933 -0.059097018 -0.07918306
000090 87 b0 c2 3c df a1 24 3e ef 48 31 3d e0 a1 43 bc
       0.023765815 0.16077374 0.043282446 -0.0119404495
0000a0 d2 3a c4 3d 45 69 2d bc b5 01 05 3e d0 0b d0 3d
       0.095815316 -0.01058418 0.12988932 0.10158503
0000b0 d5 60 bb 3d 33 06 12 3d 0a 37 13 bd 3e 4a cf bd
       0.091493286 0.035650443 -0.03594116 -0.101215824
0000c0 1d 01 03 3e 84 e4 8b bc df 6d d6 bd 53 be d9 bd
       0.12793393 -0.017076738 -0.10470175 -0.106320046
0000d0 46 d5 f5 3b ce 2c 85 bc b1 36 37 bd 61 16 02 3c
       0.007502231 -0.016256716 -0.044729892 0.007939906
0000e0 18 4c b7 bc d7 3c 2c 3d 23 d2 0f be 30 11 c3 bd
       -0.022375152 0.04205021 -0.14045005 -0.09524763
0000f0 5e 02 b7 bd 81 59 93 bd a9 b8 d9 bd 4a c3 9c 3d
       -0.089359984 -0.07194806 -0.10630924 0.07654436
000100 df d6 3f 3d 54 a9 45 3e 81 d4 31 3c 81 11 28 3d
       0.046835776 0.19302875 0.010853888 0.041032318
000110 42 81 37 3c 17 f2 98 3d fc 72 0b 3d f7 e0 79 3d
       0.011200251 0.0746805 0.034045205 0.06100556
000120 97 d1 7f 3e a4 8d 2b be 4f 7d c3 3d 90 98 ed bd
       0.24982296 -0.1675325 0.09545385 -0.116013646
000130 54 b1 16 bd 9e 4a 6f bd 9a d6 b0 bd 72 bd 8d bd
       -0.036790207 -0.05842077 -0.08634682 -0.069208995
000140 cd c0 d5 bd 53 79 b2 3d c5 61 82 3d ad 7b 2b 3e
       -0.104371645 0.08714547 0.06366304 0.16746397
000150 85 5c 0c bd b3 6b 53 3c af b9 09 3e 3d 0d 4b 3d
       -0.03426792 0.012904095 0.13449739 0.049573172
000160 82 07 02 bc 71 61 a8 bd 41 24 a6 3c ef 05 37 3d
       -0.00793636 -0.082217105 0.02028096 0.044683393
000170 d0 11 22 bd ba 9a ba bd 2c 96 6b 3d 56 c4 a4 bd
       -0.03956777 -0.09111543 0.057516262 -0.080452606
000180 14 0d 93 3d ab 6c 24 bd a3 51 47 3e aa 06 14 bb
       0.07180229 -0.040142696 0.19464736 -0.002258698
000190 60 0a e5 3d 24 f8 f0 b9 85 7f 9b bc 3c 75 2a be
       0.111836195 -0.00045961246 -0.018981704 -0.16646284
0001a0 be 87 89 3d 72 9d c8 bd cc fe 3e bd 3c b6 d3 bc
       0.06715344 -0.09795655 -0.046629712 -0.025843732
0001b0 a5 db dd 3d 96 1a 28 bd b5 71 8b 3d f0 da 00 be
       0.108329095 -0.04104098 0.06808797 -0.12583518
0001c0 62 4e eb 3c 27 6e 8a bc a7 9b 18 bd 4a 59 3b 3d
       0.0287239 -0.016898228 -0.037257817 0.04573945
0001d0 9e b6 f3 3c e2 cc 95 bc 04 17 06 3e de 0e e7 bd
       0.029750165 -0.018286172 0.13094717 -0.112821326
0001e0 ec d4 39 3d 84 70 d8 bd 2d 90 d5 bc 90 a2 cf bc
       0.045369074 -0.10568336 -0.026069725 -0.02534607
0001f0 d4 c9 2d 3d 1b f2 28 bc 26 c5 fa 3d 48 8b a2 3d
       0.042428806 -0.010311629 0.12244634 0.07936722
000200 9a fc 9c 3d 8b e3 ae 3d b9 b1 f4 3d c7 bf a1 3d
       0.076653674 0.08539494 0.119479604 0.07897907
000210 0a f2 84 bc 49 50 19 bd d8 a7 d0 3d 47 cb d5 bd
       -0.016228694 -0.03743008 0.10188264 -0.10439163
000220 e1 c9 c5 3d 99 fe 4b 3d f1 74 da 3d 83 5f a7 3d
       0.09657646 0.04980335 0.10666836 0.08172514
000230 4f 1f 77 3d 0e 5b 90 3d cc 0b be bd 95 db e4 3d
       0.060332593 0.07048617 -0.09279594 0.111746944
000240 34 b3 ed bc d8 f9 9b bd e6 c6 91 bd 4a dd c6 bd
       -0.029016115 -0.07616013 -0.07118015 -0.09710176
000250 4e 9b 4d 3c a8 02 a7 bc 51 e8 15 bb 90 90 4d bc
       0.012549235 -0.020387009 -0.0022874067 -0.012546673
000260 b5 bf c4 3d 64 da 06 3e 30 c5 0e 3e 9c bf ad bb
       0.09606878 0.13169247 0.13942409 -0.0053023826
000270 45 51 f2 3d 93 6c 5f bd 1d 0b cd 3d 5b a5 2a 3e
       0.11831907 -0.054546904 0.10011885 0.1666464
000280 2d 88 2f bd 00 4c 81 3c f8 c9 08 bd ca a1 f8 3d
       -0.042854477 0.01578331 -0.033395737 0.12140234
000290 9a 71 23 bd bf 08 82 3d 40 73 73 3d d9 4a a2 3d
       -0.03990326 0.063493244 0.059436083 0.07924432
0002a0 9c 67 0f be 86 2e 56 bd da 05 3a 3d 23 5d 6d 3d
       -0.14004368 -0.052290462 0.045415737 0.05795015
0002b0 e9 ab 7c 3d de 8f aa 3d 58 96 08 3e cc 05 eb bd
       0.061687384 0.08328222 0.13338602 -0.11475715
0002c0 59 1c 93 bd bd ea b7 bc b5 af 09 be 6e b6 2e 3d
       -0.07183141 -0.0224508 -0.13445933 0.042654447
0002d0 20 24 12 3d cf 6b 5b bd 58 04 95 3d 38 6a 0d 3e
       0.035678983 -0.05356961 0.07276219 0.1381005
0002e0 79 a6 88 3d 56 bc e0 bd 87 5c d5 bc a2 85 11 bb
       0.06672377 -0.10973422 -0.026045097 -0.0022204896
0002f0 77 bf f4 39 33 7e f2 3b f4 f3 a2 3d 79 b9 10 3e
       0.0004668196 0.007400298 0.079566866 0.14133252
000300 6d ad e7 3d e5 f0 03 3e 15 39 64 bc f1 77 05 be
       0.11312375 0.12884863 -0.013929625 -0.13034035
000310 40 1a 52 3e 01 60 39 be fb f6 9a bd cb e7 e7 bc
       0.20517826 -0.18103029 -0.07566639 -0.02830877
000320 9a 5f ad 3c dd ae c0 3d 3d bb cb bc 4e 30 18 be
       0.02116375 0.094083525 -0.024869556 -0.14862177
000330 fc 01 cc 3b fe 13 f3 3c 15 83 04 be 40 ab ff bb
       0.0062258225 0.029672619 -0.12940629 -0.007802397
000340 aa 04 dd 3c df 02 9c bd 68 56 b7 3d 7d 81 5c ba
       0.026979763 -0.07617735 0.089520276 -0.0008411629
000350 37 57 fb bc b2 88 d2 3d 0a e3 69 bd 65 11 52 3c
       -0.030681236 0.10279979 -0.057101287 0.01282153
000360 c6 f2 ef 3d e5 03 a5 3c 5d fb cf bd c0 e5 a9 3c
       0.11716227 0.020143459 -0.101553656 0.020739436
000370 1f d6 e4 3d 20 9b 06 be ec 6f d8 3d 04 02 bd 3c
       0.11173653 -0.13145113 0.105682224 0.02307225
000380 d8 a3 4e bd 30 e7 af bd 12 ab 3a be ea 34 a9 3d
       -0.050449222 -0.085890174 -0.1822932 0.08262046
000390 a7 48 2d 3e 9e f7 0c be 7d f6 d3 bd e5 eb 11 3c
       0.16922246 -0.13766333 -0.10349748 0.008906339
0003a0 15 1e 4c be 60 51 df bc ef 91 11 bd 8e 83 64 bd
       -0.1993335 -0.027260482 -0.035539564 -0.055789523
0003b0 fc 46 4b bd b7 43 c7 bc 3b 08 31 3c 4c 0e e6 bc
       -0.049628243 -0.024324281 0.010805185 -0.02808299
0003c0 89 b1 c2 3c f9 a5 d0 3c 97 ed 0f 3e c1 55 cf bd
       0.023766296 0.025469767 0.14055477 -0.10123778
0003d0 68 1a c2 3c 8c 94 d0 3c 07 7d 0a 3e 42 d0 28 bd
       0.023694232 0.025461458 0.13524257 -0.041214235
0003e0 7e 75 95 bd 89 44 52 bc cf bc 05 bd b6 ef 42 bd
       -0.072978005 -0.012833723 -0.032650765 -0.047591887
0003f0 05 55 70 3d 99 4b a4 3b fb f9 b7 bd 03 e5 fe bc
       0.05867483 0.0050138948 -0.08983227 -0.03111506
